models/esm_epoch5_state_dict.pt (torch, 569449 bytes, 8 tensors)

embedding.transform.weight f4 [100, 1280]
00000000: e4ca e9be 35ef cc3d b507 393d 79bb 44be
00000010: 6215 0cbf 69f6 313e 661c c0bd 0488 943e
00000020: 2957 4a3e 24eb b4be b4ed ddbd 211b 76be
00000030: 5a34 d9bd 0463 08bf 8b15 81bd c43d 993e
00000040: f72a a8bd edfe 78be aa57 333f 1767 10bf
00000050: afdc 0fbf 4a61 3ebe 48a9 20bf 93ab 963e
00000060: 3ac1 c73d a99f 313e bcae 033f c290 7fbe
00000070: a420 e83e 1da9 6c3f 027a 21bd e5f6 71be
00000080: 171e bb3e 25ae 66be 0952 103e 7172 853e
00000090: 45a4 dcbe 5222 febd a824 983e 85f6 40be
000000a0: 6848 093f cce6 0cbe 4380 87be 67a6 9abe
000000b0: 2b30 163e b932 1ebf d0b1 2a3d 8dae 5dbe
000000c0: 1e1e 1a3f 1e5a c73d 0ea2 acbd 7c75 aabe
000000d0: 3820 043f 8815 dabe ef5d cebe 19bc a93d
000000e0: e0aa 42be e35e 91bd 7094 00bf b058 cd3e
000000f0: e6bd b2be 7904 193e ea87 19bf 6107 bebe
00000100: 2556 8fbc 1976 1fbe 2e71 303e e8b3 7bbe
00000110: 54d4 67bf 012f eabc 7bd4 d1be 43f9 ef3d
00000120: 75d5 1ebe 4aa2 49be bda3 fb3d ecc9 303d
00000130: 41d4 173f dd53 fbbc 49a7 94be a85c 173f
00000140: 6f19 bf3e 44df 90bd 915c 523e 167e 1d3e
00000150: 7e4d 1e3f bc77 d13e 5f95 a3bd 5226 823d
00000160: 5207 ba3e cf2f ae3d cccd 00be 5b8f 48be
00000170: acb0 dbbc 7e62 113d 094a 0fbf cd98 2b3f
00000180: 19d3 b6be 9a9a 203e 1c1e ea3e 07c1 e93c
00000190: 41b5 ccbd 5452 b6bd 8628 b6bd 1d90 ac3e
000001a0: dd0f 95be 0435 f43e 5f37 55bd 97ab 07bf
000001b0: 4048 99be 9a69 013e 54ed 5d3e 8974 4ebf
000001c0: 5ad8 383f 1db1 9e3e f094 3c3e c5bc 92be
000001d0: 0735 d6bd 3ed5 44be dfd2 5dbe 60d5 17be
000001e0: 63c5 9d3e 03f7 dc3e c19e ec3d 4994 64be
000001f0: d44b 85bd 5f24 0b3d a694 b7be 4ced 0abe
00000200: 46b9 01bd d44b 02be 4cfb 363f 54ca 51bd
00000210: fa12 133e 34cb a1bd f75d a83d 2bae 013e
00000220: 399a d6bb e90a f7be 3c45 03bf 0c8f 053f
00000230: a402 b5be 16cb bebd 1954 68bc cede c13d
00000240: ebcb a73e 2d9b a0be a58b e8bc 80ba 1fbf
00000250: 1251 4a3d 1731 5c3d 27c1 9a3e d5e9 59be
00000260: 169f bbbd f81a f9bc 79f1 72be 4a28 8abe
00000270: aff8 ba3e 3f3f 273e 308c 0fbf f99e c63e
00000280: cd4d 1fbe ff3a 03be 739a 393e 1121 b9be
00000290: 7205 2dbf ce5f dd3a 95ff e8be 687a 92bd
000002a0: 7531 0fbf 6146 403e cf0b e63d bba2 b0b9
000002b0: 71a1 f73e eb58 003e 7868 9ebd 71a2 b0be
000002c0: 73f0 08be abd6 07bc 1e17 a0be a1c0 6dbd
000002d0: f862 623e bc49 99be b5f1 2abf 4c59 cd3d
000002e0: baec be3d 09bf f03e ef4f 303e f080 bbbe
000002f0: 01ff 233f 9659 31be 60a7 1bbe 79a8 e5bd
00000300: 0b0a 36be 08a9 21bd 6ce8 9ebf dcc0 eebe
00000310: 8554 14be d245 78be c99b 3cbe c19a c53e
00000320: d95a d2be d591 453e 0274 193e d555 e23e
00000330: fb4d c8bd e03a 88be 8d3e bebe 08b2 123e
00000340: 172d d9be 4e0e c53c 9aba bc3e 0613 72bd
00000350: a7a2 0abf 417b d4be eecd 92be 2de8 913d
00000360: a61d edbe 5307 933e e7f8 29bf 1412 6c3e
00000370: f5da 61be 2c20 d5bd 4ec8 09bf a5d8 b6be
00000380: 61f0 873e 6bb8 6ebe 08aa f53e 9f60 d4be
00000390: 643f a53c a72d 98bd c2dc f23e e61f c13a
000003a0: d9a4 a43e a724 823e d333 c13d a26a 873e
000003b0: 1b0d a73e 36a6 763f c110 5a3e 3cb1 1abf
000003c0: 941c 093f 47fe d2bc 5eb9 993e 8a10 4fbd
000003d0: 1343 b43e 0123 30bd 1995 6e3d d060 a8be
000003e0: dce5 eb3e 8c51 b83e 8116 003e 5053 cf3e
000003f0: 79c9 72bc f27f d63e 73a3 0c3f fd56 74be
-0.45662606 0.100065626 0.045173366 -0.1921214 -0.5472013 0.17379154 -0.093804166 0.29010022
0.19759811 -0.35335648 -0.10836354 -0.24033786 -0.106056884 -0.53276086 -0.06302937 0.29929936
-0.0821132 -0.24315996 0.7005564 -0.564073 -0.5619611 -0.185918 -0.627583 0.29427776
0.09753652 0.17346062 0.514385 -0.24957564 0.45337403 0.92445546 -0.039422996 -0.23629339
0.36546394 -0.22527368 0.14093794 0.26063874 -0.43094078 -0.1240889 0.29715466 -0.1884404
0.5362611 -0.13759917 -0.26465043 -0.3020508 0.14666812 -0.61796147 0.04167348 -0.21648617
0.60202205 0.09733985 -0.08429347 -0.33292758 0.5161166 -0.42594552 -0.4030604 0.0828783
-0.19010496 -0.07098176 -0.502265 0.40106726 -0.34910506 0.14943112 -0.59973013 -0.37115005
-0.017497132 -0.15572394 0.17230675 -0.24580348 -0.9055836 -0.028586866 -0.40982422 0.11717465
-0.15511115 -0.19690815 0.1228709 0.043161318 0.5930825 -0.030679638 -0.29033878 0.5912576
0.37324092 -0.070738345 0.20543124 0.15380129 0.61836994 0.40911663 -0.07987475 0.06354965
0.3633371 0.085052125 -0.12578505 -0.19585936 -0.026817642 0.03549432 -0.55972344 0.6703003
-0.3570793 0.15683976 0.45726097 0.028534425 -0.09995509 -0.089024216 -0.08894448 0.337037
-0.29113665 0.47696698 -0.05205476 -0.529962 -0.29937935 0.1263794 0.21672565 -0.8064657
0.72205126 0.30994502 0.1841619 -0.28659645 -0.10459333 -0.1922197 -0.21662472 -0.1482749
0.30814657 0.43157205 0.115537174 -0.22322191 -0.06508604 0.033970233 -0.35855597 -0.13567084
-0.03167083 -0.12724239 0.714772 -0.051218346 0.14362708 -0.07900086 0.08221047 0.12664096
-0.0065491465 -0.4825051 -0.5127752 0.521714 -0.35353577 -0.09316079 -0.014180207 0.09466325
0.32772765 -0.3136839 -0.0283869 -0.6239395 0.04939372 0.053757753 0.3022549 -0.21280606
-0.091612026 -0.030408368 -0.23724927 -0.26983863 0.36517856 0.1633272 -0.56073284 0.38793162
-0.15557022 -0.12815474 0.18125324 -0.3615804 -0.67586434 0.0016889514 -0.45507494 -0.071522534
-0.5593484 0.18776847 0.11232721 -0.0003369058 0.48365358 0.1253392 -0.077347696 -0.34498933
-0.13372974 -0.008290927 -0.31267637 -0.058045033 0.22108066 -0.29939067 -0.66775066 0.10026798
0.09322496 0.47020748 0.17217992 -0.3662181 0.6406098 -0.1731933 -0.15200567 -0.11213774
-0.17777269 -0.03946784 -1.241468 -0.46631515 -0.14485367 -0.24245384 -0.18418802 0.3859463
-0.41084936 0.19293912 0.1498566 0.4420611 -0.097804986 -0.26607418 -0.37157097 0.14325726
-0.42417213 0.024054673 0.36861116 -0.059100173 -0.5415444 -0.41500285 -0.28672737 0.07124362
-0.46311682 0.28716525 -0.6639542 0.23053771 -0.22056182 -0.10406527 -0.53821266 -0.35712162
0.26550582 -0.23312537 0.47981286 -0.41479966 0.020171829 -0.074305825 0.4743405 0.0014734238
0.3215702 0.2541859 0.09433713 0.26448542 0.32627186 0.9634737 0.21295454 -0.6042669
0.5355923 -0.025756015 0.30024236 -0.050552882 0.35207424 -0.043002132 0.05824766 -0.32886362
0.46073806 0.35999715 0.12508585 0.4049325 -0.014818543 0.4189449 0.54936904 -0.23861308

embedding.transform.bias f4 [100]
00000000: 433a 9a3c b560 3c3c 1265 49bd 3311 11bd
00000010: 52e3 e3bc 92b8 babc 0479 a2bd e9b1 1bbe
00000020: c82e 16be eb64 60bd 68db ebbd 0818 d7bc
00000030: abc0 1fbe 8a90 28ba a9f7 d8bc 597d 90bd
00000040: c90d 93bd dc32 8abd c140 21be 38d2 8fbd
00000050: 0f8a 46be e9c8 90be 7641 ecbd b74f c9bd
00000060: 008d 27bd 02da 37bd 3800 6c3b 3df9 b53c
00000070: b6a7 82bd ca90 82bc 2549 6bbc 9a31 a7bd
00000080: 2257 babc 6a42 e0bc 6941 f5bd 1acb 17bd
00000090: 4cac bdbd 576e debd 6e90 07bd 92f3 a93d
000000a0: d239 90bd f31c 4dbd 765e 8bbe 8ccd 32bd
000000b0: ea38 903b e3c4 f1bc 6969 e0bd ed69 9abe
000000c0: e6c9 10be 4ea2 bbbd 54ab 02bd 645d 60bb
000000d0: f96a 1bbe 16b5 e1bc 6cb4 b8bd e855 56bd
000000e0: a773 33bd 8a98 21bd 69a8 2abc 8f27 6cbd
000000f0: d61f 853d 9b87 b83b dd94 03bd 748c 0abe
00000100: cd5b 77bd a1c2 51be f53a 08bd fc02 09be
00000110: 142d 04bd 978e f1bc 16b6 cbbd 4151 2fbd
00000120: 5150 79bd 9bf1 1abd 349c 19bd 0810 5cbc
00000130: 8d6e 76be 3967 b43b 8912 7bbd 25cb 84be
00000140: fdb3 c0bd 1897 91bd e97c 9ebc 224c 25bd
00000150: 7b45 18bc 5484 ffbd 0cda 3dbe 259d 403d
00000160: bf4b 8abc 6508 b1bd 6594 b0bd ca4e b8be
00000170: bb71 963d 91d0 dfbc 431e 74bd 2903 e0bd
00000180: 70ce 07bd 63ef 1bbe 3442 7abd 0a8d 153d
0.01882661 0.011497666 -0.049168654 -0.035416793 -0.027818356 -0.022793088 -0.07933238 -0.15204586
-0.14666283 -0.054783743 -0.11516458 -0.026256576 -0.15600841 -0.00064302294 -0.026485281 -0.07055158
-0.07180364 -0.06747982 -0.15747358 -0.07022518 -0.19388603 -0.28278282 -0.11535923 -0.098296575
-0.040905952 -0.044885643 0.0036010873 0.022213573 -0.063796446 -0.015938181 -0.014360701 -0.081637576
-0.022746626 -0.027375419 -0.119753666 -0.037058927 -0.09261379 -0.108608894 -0.033096723 0.082984105
-0.07042278 -0.050076436 -0.27220505 -0.043653056 0.004401316 -0.029512828 -0.109576054 -0.3015894
-0.14139518 -0.091618165 -0.031901672 -0.0034235353 -0.15177526 -0.027552169 -0.09018788 -0.05232802
-0.043811467 -0.039452113 -0.010416129 -0.057654914 0.06500213 0.0056314 -0.03212439 -0.13530141
-0.060390282 -0.20484401 -0.03325935 -0.13380045 -0.032269552 -0.029486937 -0.099468395 -0.0428021
-0.06086761 -0.03782807 -0.037502483 -0.0134315565 -0.2406561 0.005505469 -0.061296973 -0.25936237
-0.0940933 -0.07108897 -0.019346671 -0.04035581 -0.009293909 -0.124764115 -0.1854021 0.047024865
-0.016881822 -0.08644179 -0.08622054 -0.3599761 0.07345911 -0.027321132 -0.059599172 -0.10938103
-0.03315586 -0.15228038 -0.061098292 0.03651146

contact.hidden.conv.bias f4 [50]
00000000: 8272 d13f 1591 f33f f990 bbbf 9eb7 8b3f
00000010: 78e9 7abf 682d 33bf 116d 2abf 47c7 1cbf
00000020: f883 5dbf 036e 0c40 9e5b 9dbf 32f5 92bf
00000030: ab6e ac3e f95a f53f 9b27 43bf 2e63 b3ba
00000040: f485 dc3f 1413 0cbf cfa4 f9be 64c8 4abe
00000050: f500 76bf 6aa0 813f 31ea 113f af3c 2e3f
00000060: 4965 24c0 7c0c f83f 773b 3ebf 455b c83f
00000070: a1d6 98bf d372 4fbf 5cac 0140 bd2a 0e40
00000080: 44c3 7ebf 4700 cfbf cec2 52bf 7687 61bf
00000090: f739 a2bf fb2d 44bf 80f6 5640 0cc6 8fbf
000000a0: 8e96 66bf d9dd 8bbf e445 29bf e8e9 8f3e
000000b0: dd1d c43e a459 b0bf b079 2dbf 0985 76bf
000000c0: fc63 9f3f b726 ce3f
1.636307 1.902865 -1.4653617 1.091541 -0.98012495 -0.6999116 -0.6657267 -0.61241573
-0.86529493 2.1942146 -1.2293584 -1.1481078 0.33678183 1.9168388 -0.7623231 -0.0013686174
1.7228379 -0.5471661 -0.4875855 -0.19803005 -0.9609521 1.012708 0.5699797 0.68061346
-2.568682 1.937881 -0.74309486 1.5652853 -1.19405 -0.8103458 2.026145 2.2213585
-0.995167 -1.617196 -0.823285 -0.8809732 -1.267394 -0.7663266 3.3587952 -1.1232314
-0.9007348 -1.0927078 -0.6612227 0.28108144 0.38304034 -1.3777356 -0.67763805 -0.96296746
1.2452388 1.6105565

contact.hidden.batchnorm.weight f4 [50]
00000000: 8a7b 903e 5eea 2f3e d62c c8bf 28da 3a3e
00000010: 0a60 783f 2973 803f c421 853f add2 273f
00000020: 5678 2f3e 98c0 803e c708 803f 4e61 3d3f
00000030: 9c65 4e3e 586a 9d3e 5d95 d23f 0000 303e
00000040: 11fb b23e 0b1a 193f a8bd 3e3e c14a 063f
00000050: 55b6 1c3f 64a9 7e3e 4145 ac3e b758 4f3e
00000060: 32d3 e73f 569b cf3e 9555 533f 121f c93e
00000070: 7de1 733f 51bf 5b3f f7c7 763e 732d 153e
00000080: 1b50 bb3e f0a3 8c3f a69f 0b3f 28d2 a33e
00000090: 76e5 ae3f c692 903f bf83 f73e 3c3e 013f
000000a0: 7ce5 153f c787 fe3e 3834 033f ac09 503e
000000b0: 9530 4e3e 7374 863f 5df6 393f 2713 a93f
000000c0: e930 3a3e 685f e63d
0.28219253 0.17179248 -1.5638683 0.18247283 0.97021544 1.0035144 1.040093 0.6555584
0.17135748 0.25146937 1.0002679 0.739766 0.20155948 0.30745196 1.6451832 0.171875
0.34957173 0.59805363 0.18627036 0.52457815 0.61215717 0.24869305 0.33646587 0.20248686
1.8111327 0.405482 0.8255246 0.39281517 0.9526594 0.858388 0.24099718 0.14568119
0.36584553 1.098753 0.5454048 0.31996274 1.3663776 1.1294792 0.48342702 0.5048559
0.5855329 0.49712965 0.51251554 0.2031619 0.2013572 1.0504287 0.72641546 1.320897
0.1818272 0.11248666

contact.hidden.batchnorm.bias f4 [50]
00000000: a4b2 ddbe 0ecb e8bd 1eb0 69ba 2c20 10be
00000010: 2610 b73e c604 aa3e f8ec 003f 3240 823e
00000020: 859a 583e c372 28be c9f3 b5bf fbbb fd3e
00000030: 0897 003e f095 8b3d 7d28 113e ec13 633e
00000040: ff2e 0abe bc16 5fbf de49 553d 1826 3f3f
00000050: 1307 103f 7d7f 283e 59d0 59bf 9224 e23d
00000060: aecf 21c0 ae1f 98be 3018 503e 9a84 14bf
00000070: 7371 08be fd63 f63e 7524 46bf fe1a a6bd
00000080: 4a06 09bf 528a 96bc 0bec 8c3e 1f45 5f3e
00000090: e98d bfbe 8657 8dbf 339e 2f3e 9df0 9d3d
000000a0: 47d7 8b3d fdbf 183f ccef b43e fa6b 343c
000000b0: 1692 783e 83f3 093e 3ae3 803d a3fb ec3e
000000c0: 57e6 6c3e c8d7 b0bd
-0.43300354 -0.113668546 -0.0008914488 -0.14074773 0.35754508 0.33206767 0.50361586 0.25439602
0.21152695 -0.16450028 -1.4215022 0.4955748 0.12557614 0.06815708 0.14175601 0.22175568
-0.1349449 -0.87144065 0.0520724 0.746675 0.56260794 0.16454883 -0.8508354 0.110421315
-2.5283008 -0.2971167 0.20321727 -0.58014834 -0.13324527 0.4812316 -0.7739938 -0.08110617
-0.5352522 -0.018376503 0.27523836 0.21803711 -0.37412956 -1.1042335 0.17150192 0.07711909
0.0682817 0.5966795 0.353392 0.011012072 0.24274477 0.13471799 0.0629334 0.46285734
0.23134743 -0.08634907

contact.hidden.batchnorm.running_mean f4 [50]
00000000: eb9f 4c40 d2c1 583e 0400 0000 59c3 4240
00000010: ddeb 4b3c a883 9b3c 25be ec3c 8649 2a3d
00000020: 8bd1 5f3c 63fc 8a40 0cc6 203e 883b 2e3c
00000030: d4ec 2e41 05ad 803f fb33 753c bada c440
00000040: 8b47 6940 e82c 393d 64a6 2a41 6036 3041
00000050: 1d2e a23c 0f1b b440 f11a 7a3f f010 df40
00000060: 794f 053e 9e31 fc40 f6bb 7b3c 0208 2d3d
00000070: eefc a53e 0385 bb3c a4d7 3f3f 6bbd 153e
00000080: 5965 e33f 7626 eb3e c545 4d3c 4466 043d
00000090: c3f0 0d3e 9522 d83e ae14 0442 493f 3d3f
000000a0: 3a88 d83b 6a12 823c 162b a53c 269c bb40
000000b0: e4bc 553c 2546 7c3d 727b 6b3c 655b a73c
000000c0: c131 d440 7d3f 923d
3.1972606 0.21167687 6e-45 3.043173 0.012446371 0.018983677 0.028899262 0.041574024
0.013660799 4.343309 0.15700549 0.010634311 10.932819 1.0052801 0.014966006 6.1517
3.6449916 0.04520884 10.665623 11.013275 0.01979738 5.628303 0.9769736 6.9708176
0.13018598 7.881057 0.015364638 0.042243965 0.32419533 0.022890573 0.74938416 0.14623038
1.7765304 0.4592778 0.012528841 0.03232409 0.13861375 0.42213884 33.020195 0.7392469
0.0066080363 0.015877921 0.020162147 5.862811 0.013045523 0.061590333 0.014372693 0.020429322
6.6310735 0.07141016

contact.hidden.batchnorm.running_var f4 [50]
00000000: 291c 2142 8f72 2341 0400 0000 0e7b 5043
00000010: 5eb2 ad3e 371d 7e3f 65d8 3e40 b759 7c40
00000020: 44fc 873e f483 8f42 6c92 0841 9613 513e
00000030: 303c b344 5b61 0043 7c04 db3e 72a5 0443
00000040: 68cd af42 c60e 2040 f983 cb43 69ee 8343
00000050: 816f 383f 2bcf 8242 9faa 7242 ef56 8f42
00000060: b81e 1a41 2548 6a43 a02a 133f cd97 873f
00000070: 44cd b141 6665 ca3f b71c dc41 4e56 2640
00000080: 59cc d641 e18f 7742 4596 bb3e f36f 5c3f
00000090: 93b6 d640 6216 7942 b3ba 2044 574a 0443
000000a0: 82b6 3f3e f8db e23e 3aad 313f ecba 4043
000000b0: c21d de3e afc6 2d40 9e5f cc3e d677 513f
000000c0: ac3f 4f44 202b 2540
40.2775 10.215468 6e-45 208.48068 0.33925146 0.9926333 2.9819577 3.9429758
0.2655965 71.75772 8.535748 0.20417628 1433.8809 128.3803 0.4277686 132.64627
87.901184 2.5009017 407.03104 263.86258 0.7204514 65.404625 60.666622 71.66979
9.6325 234.28181 0.57486916 1.0593201 22.225227 1.5812194 27.51402 2.5990176
26.84978 61.890507 0.36638084 0.8610832 6.709787 62.27186 642.9172 132.29039
0.18721965 0.44308448 0.6940495 192.73016 0.43382078 2.7152517 0.399167 0.8182348
828.9949 2.5807571

contact.conv.weight f4 [1, 50, 7, 7]
00000000: 9552 613e 643c 3e3e 3266 353e ba02 d23e
00000010: cda1 243e dc2e 2f3e 46a8 5c3e 643c 3e3e
00000020: 68bb 2c3e 602b 113e 72b9 c33e cc7c 073e
00000030: 76d6 0e3e 7277 393e 3266 353e 602b 113e
00000040: ce81 023e 842e b93e 7690 d53d 35b9 f53d
00000050: f911 2a3e ba02 d23e 72b9 c33e 842e b93e
00000060: 71b3 c23e 1fe5 b23e 3a06 b13e aa30 c33e
00000070: cda1 243e cc7c 073e 7690 d53d 1fe5 b23e
00000080: cec3 c23d 10cc e53d ce52 203e dc2e 2f3e
00000090: 76d6 0e3e 35b9 f53d 3a06 b13e 10cc e53d
000000a0: 32df 033e 3ef1 223e 46a8 5c3e 7277 393e
000000b0: f911 2a3e aa30 c33e ce52 203e 3ef1 223e
000000c0: 1117 473e 0074 62bd 0680 26bd 79db f0bc
000000d0: 4c8a 023e 6a50 5bbd 151f 66bd da7a 3bbd
000000e0: 0680 26bd 0267 7dbd caf0 22bd 38f0 e53d
000000f0: 7ecc 97bd 3494 5bbd 3a34 2dbd 79db f0bc
00000100: caf0 22bd 1c68 47bd b52d 353e 8922 08bd
00000110: c3ea 3cbd fab2 0abd 4c8a 023e 38f0 e53d
00000120: b52d 353e 6e0a 933f 642c f53d 4e4f fb3d
00000130: c6b5 b53d 6a50 5bbd 7ecc 97bd 8922 08bd
00000140: 642c f53d 28fb b0bd 69ab 51bd 8c27 96bd
00000150: 151f 66bd 3494 5bbd c3ea 3cbd 4e4f fb3d
00000160: 69ab 51bd 9526 25bd 06c4 4ebd da7a 3bbd
00000170: 3a34 2dbd fab2 0abd c6b5 b53d 8c27 96bd
00000180: 06c4 4ebd 49f3 31bd 6316 7cbc 2347 cebc
00000190: 24f3 b1bc 92bd 7c3d feca d0bc 0eee c1bc
000001a0: dfaa ab3b 2347 cebc 9409 4abc 203f 033c
000001b0: 2803 5b3d 5d2c 64bc 82fd 29bb 1ea8 d73c
000001c0: 24f3 b1bc 203f 033c 0523 4e3c 6dde ae3d
000001d0: 5dfa 61ba c7d3 75bc ec8a 033d 92bd 7c3d
000001e0: 2803 5b3d 6dde ae3d 3473 1f3f f637 aab9
000001f0: 0c66 08bc d085 a8bc feca d0bc 5d2c 64bc
00000200: 5dfa 61ba f637 aab9 2114 d63b be26 90bb
00000210: 53f0 e83c 0eee c1bc 82fd 29bb c7d3 75bc
00000220: 0c66 08bc be26 90bb ce87 ec3b e20b 5abc
00000230: dfaa ab3b 1ea8 d73c ec8a 033d d085 a8bc
00000240: 53f0 e83c e20b 5abc 90c7 d7bb 79c1 0ebe
00000250: d5bb 1abe f465 2abe 7671 5fbe 6e66 16be
00000260: ad41 0fbe 64e8 34be d5bb 1abe 0b14 24be
00000270: e6fc 28be badf 76be 0076 1bbe 8272 18be
00000280: 5012 41be f465 2abe e6fc 28be e81f 15be
00000290: b257 5ebe 4450 08be 881e 1bbe b8d5 3dbe
000002a0: 7671 5fbe badf 76be b257 5ebe d395 a33e
000002b0: 1648 4fbe f6b4 4abe e458 5dbe 6e66 16be
000002c0: 0076 1bbe 4450 08be 1648 4fbe be16 f4bd
000002d0: 1c1b e8bd e02d 24be ad41 0fbe 8272 18be
000002e0: 881e 1bbe f6b4 4abe 1c1b e8bd 3c02 03be
000002f0: 58dd 1abe 64e8 34be 5012 41be b8d5 3dbe
00000300: e458 5dbe e02d 24be 58dd 1abe 58c5 33be
00000310: f0a4 37bc 7262 73bb 9c71 27bb b1ab 283c
00000320: 54af 543c a96b 27bb e430 ebba 7262 73bb
00000330: 41c3 dabc a1a0 713c 549c 573c 6c8e b4bb
00000340: 961d 5abc e863 66bc 9c71 27bb a1a0 713c
00000350: 5592 063c ee6d ff3c bc6a f63b f6ea c53b
00000360: 5ee1 01bc b1ab 283c 549c 573c ee6d ff3c
00000370: fc8e d63f 529b 143d 307a 233c f176 453d
00000380: 54af 543c 6c8e b4bb bc6a f63b 529b 143d
00000390: 532c 023c 7653 e8ba cc5d 42bc a96b 27bb
000003a0: 961d 5abc f6ea c53b 307a 233c 7653 e8ba
000003b0: a01b d9bb b786 ffbb e430 ebba e863 66bc
000003c0: 5ee1 01bc f176 453d cc5d 42bc b786 ffbb
000003d0: 0ed4 9fbc 8487 94bd dade 75bd bcfb 0bbd
000003e0: aa20 2bbd e093 4dbd 8970 34bd 615e 86bd
000003f0: dade 75bd 539d fcbc 08e5 80bb 7ba6 bdbb
0.22004159 0.18577725 0.17714766 0.41017705 0.16077347 0.17107719 0.21548566 0.18577725
0.16868365 0.14176702 0.3822742 0.132312 0.13948998 0.18111971 0.17714766 0.14176702
0.12744829 0.361683 0.10427944 0.11998216 0.16608419 0.41017705 0.3822742 0.361683
0.38027528 0.3494043 0.34575063 0.38123065 0.16077347 0.132312 0.10427944 0.3494043
0.09510003 0.112205625 0.15656587 0.17107719 0.13948998 0.11998216 0.34575063 0.112205625
0.12878111 0.15912339 0.21548566 0.18111971 0.16608419 0.38123065 0.15656587 0.15912339
0.19442393 -0.055286407 -0.040649436 -0.029401528 0.12748069 -0.053543486 -0.056181986 -0.045771457
-0.040649436 -0.061865814 -0.039780416 0.11227459 -0.07412051 -0.053608134 -0.042286135 -0.029401528
-0.039780416 -0.04868327 0.17693217 -0.03323606 -0.046122324 -0.03386209 0.12748069 0.11227459
0.17693217 1.1487558 0.119713575 0.122709855 0.08872561 -0.053543486 -0.07412051 -0.03323606
0.119713575 -0.08641654 -0.05118886 -0.07331762 -0.056181986 -0.053608134 -0.046122324 0.122709855
-0.05118886 -0.040319998 -0.05047991 -0.045771457 -0.042286135 -0.03386209 0.08872561 -0.07331762
-0.05047991 -0.043444905 -0.015386197 -0.025180405 -0.021722384 0.061704226 -0.02548742 -0.023673084
0.0052388753 -0.025180405 -0.012331385 0.008010656 0.053469807 -0.013926593 -0.0025938456 0.026325282
-0.021722384 0.008010656 0.0125815915 0.08538518 -0.0008620376 -0.015004105 0.032114908 0.061704226
0.053469807 0.08538518 0.6228516 -0.0003246662 -0.008325111 -0.02057162 -0.02548742 -0.013926593
-0.0008620376 -0.0003246662 0.0065331613 -0.0043991497 0.028434908 -0.023673084 -0.0025938456 -0.015004105
-0.008325111 -0.0043991497 0.0072183376 -0.013308497 0.0052388753 0.026325282 0.032114908 -0.02057162
0.028434908 -0.013308497 -0.006585069 -0.13940991 -0.15110715 -0.16640455 -0.21820626 -0.14687511
-0.13989897 -0.17666775 -0.15110715 -0.16023271 -0.16502723 -0.24108782 -0.15181732 -0.14887431
-0.18854642 -0.16640455 -0.16502723 -0.14562953 -0.2171314 -0.13311869 -0.15148365 -0.18538558
-0.21820626 -0.24108782 -0.2171314 0.31950244 -0.20242342 -0.19795594 -0.2161594 -0.14687511
-0.15181732 -0.13311869 -0.20242342 -0.119184 -0.11333296 -0.16033125 -0.13989897 -0.14887431
-0.15148365 -0.19795594 -0.11333296 -0.12793821 -0.15123498 -0.17666775 -0.18854642 -0.18538558
-0.2161594 -0.16033125 -0.15123498 -0.1755575 -0.011208758 -0.0037137535 -0.0025549894 0.010294841
0.012981255 -0.0025546348 -0.0017943648 -0.0037137535 -0.026704432 0.01474777 0.01315983 -0.005510142
-0.013312718 -0.014061905 -0.0025549894 0.01474777 0.008213599 0.031180348 0.007520048 0.0060399724
-0.007927267 0.010294841 0.01315983 0.031180348 1.6762385 0.036280937 0.009977862 0.048209134
0.012981255 -0.005510142 0.007520048 0.036280937 0.007945138 -0.0017725069 -0.011863183 -0.0025546348
-0.013312718 0.0060399724 0.009977862 -0.0017725069 -0.0066256076 -0.0077980417 -0.0017943648 -0.014061905
-0.007927267 0.048209134 -0.011863183 -0.0077980417 -0.019510295 -0.0725241 -0.06002698 -0.03417562
-0.041779198 -0.050189853 -0.044052634 -0.0656097 -0.06002698 -0.030836737 -0.0039335527 -0.0057876683
