models/protbert_epoch3_state_dict.pt (torch, 467049 bytes, 8 tensors)

embedding.transform.weight f4 [100, 1024]
000000 cf ac 25 bd 13 bd 27 be 9e 4d 02 bc ae cb 19 be
       -0.040448006 -0.1638072 -0.007953076 -0.15019104
000010 fe c9 d5 bc 46 e6 f8 3c 71 6a 32 bd f0 f1 cc bd
       -0.026097294 0.03038324 -0.04355854 -0.100070834
000020 76 b6 35 3e 64 21 03 3e 6f 3a ed 3d e1 eb e7 3d
       0.17745385 0.12805706 0.11583411 0.11324287
000030 e9 01 4b be f0 bf 25 be d6 ad b1 bd 64 f8 d4 3d
       -0.19824947 -0.161865 -0.08675735 0.10398939
000040 9b 78 c6 3d b3 4e 71 be d2 99 de bd 86 2f 5b be
       0.096909724 -0.23565178 -0.10869183 -0.21404848
000050 52 e6 22 3d 3a d8 cd 3d 7c 0f 29 3e e3 0d 49 3e
       0.03977043 0.100510076 0.16509813 0.19634204
000060 a3 13 fb bc ea cc ea 3d 34 09 d5 bd a5 6f 32 be
       -0.030649012 0.114648655 -0.10402146 -0.17425402
000070 8c 65 1b 3d 0b 4e a4 3d 04 a4 e6 3d 72 12 00 be
       0.03793864 0.08022698 0.11261752 -0.12507036
000080 51 66 77 3e 41 9c b0 3d a8 f2 c7 bd 38 4f 48 3e
       0.24160124 0.08623553 -0.0976308 0.1956147
000090 ce 85 aa 3c fa 94 db bc 0d 0f bc 3c 61 fd 13 3e
       0.020815756 -0.026804436 0.022956396 0.14452125
0000a0 51 ce b6 3c af dd a7 bd 7a 06 06 3e 70 14 4b bd
       0.022315176 -0.0819658 0.13088408 -0.049580038
0000b0 1f ba 51 be a3 e0 4c 3e f8 9a 04 be 3d 0c 1b 3e
       -0.20481156 0.20007567 -0.12949741 0.15141387
0000c0 76 e0 51 be f9 c5 25 3e 25 85 53 3e e2 26 4d be
       -0.20495781 0.16188802 0.2065626 -0.20034364
0000d0 e2 99 7e 3d 0c d0 db bd 73 1e a2 3d a3 43 67 bd
       0.062158473 -0.10733041 0.07915964 -0.056460988
0000e0 08 05 61 3e 4f ca ce 3c 88 b3 f7 3b ac 38 c5 bd
       0.21974576 0.025242953 0.0075592436 -0.0962995
0000f0 b9 79 8c 3e c7 97 5a 3e 68 9e 07 3e fb e9 30 bc
       0.27436617 0.21346961 0.13244021 -0.010797973
000100 33 79 57 3e e0 8b 4b be 32 45 17 be 94 dc 55 be
       0.21042328 -0.19877577 -0.1477249 -0.20884925
000110 80 42 11 3c f2 bd 5a 3e cf e3 56 3e 99 44 81 bd
       0.0088659525 0.21361521 0.2098534 -0.06311912
000120 b3 58 16 be c4 cc 95 bc 67 b2 93 3d 87 9a 16 be
       -0.14682274 -0.018286116 0.07211762 -0.14707385
000130 c0 e4 73 bd 49 f0 16 3e f2 2b 11 be 1b 46 13 be
       -0.059544325 0.14740099 -0.1417692 -0.14382212
000140 d2 1a 79 3d dd c6 08 3e e1 cc ce bd dd 10 47 3e
       0.060816593 0.1335711 -0.10097671 0.19440027
000150 55 82 ce bc a7 4b 9c bd f3 a3 77 bd 85 04 4d 3e
       -0.025208632 -0.07631617 -0.06045909 0.20021255
000160 3a e1 bb bc 08 eb 9d bc ea 3b 06 be 76 bd d2 3d
       -0.022934545 -0.01927711 -0.13108793 0.10290043
000170 7d 15 1a 3e 7c 24 25 3e ff 1a 6a 3e 73 a9 fe bd
       0.1504726 0.16127199 0.2286186 -0.124346636
000180 f4 e1 9f 3d 39 93 fa 3d ad e8 65 b9 35 a5 13 3d
       0.07806769 0.12235112 -0.0002192582 0.036046226
000190 79 51 02 3d 16 57 1a be cb 35 e0 bd 32 21 fe bd
       0.03181598 -0.15072283 -0.1094776 -0.12408675
0001a0 53 93 9c 3d c7 2a 26 3e 03 99 aa bd ce 17 86 be
       0.07645287 0.16227256 -0.08329966 -0.26190037
0001b0 56 4c 89 be f5 e4 75 bd 25 73 48 3e fc 64 b7 be
       -0.26816052 -0.060032804 0.19575174 -0.35819232
0001c0 fc 8b fd 3c 6a fd a1 bd e6 3e 57 bd 8e b4 bd 3d
       0.030950539 -0.07909663 -0.05255022 0.09262954
0001d0 8b 7f 0a 3e 87 f3 dc bd ea f6 91 bd 51 ad 0f 3e
       0.13525216 -0.10788637 -0.07127173 0.14030959
0001e0 e0 f9 c9 bc ac bb 26 3e e2 ad 83 bd 84 f0 60 bc
       -0.024655282 0.16282529 -0.0642965 -0.013729218
0001f0 55 bf 33 3d f6 73 48 3c 84 a9 b5 3b c1 de ae bd
       0.04388364 0.0122346785 0.0055438895 -0.08538581
000200 16 0b ce bd b9 45 98 3a 2f 10 3c be e9 19 60 bd
       -0.10060708 0.0011617459 -0.18365549 -0.05471221
000210 cc 87 30 bd 7e 03 0f 3d 22 d5 e0 3d 54 47 86 bd
       -0.043098256 0.03491544 0.10978152 -0.065565735
000220 63 89 64 bd 2c 86 4d 3d c0 d8 b0 bc f5 f0 0f be
       -0.055795085 0.050176784 -0.02158773 -0.14056762
000230 43 ed 87 3e 76 1f 7c be 0b 1f 57 be dc 51 ef 3c
       0.26548204 -0.24621376 -0.21007936 0.029213838
000240 8c bf 7a bd 1f 7a 91 bd dc 92 b1 3d 45 ba 5a be
       -0.06121783 -0.07103371 0.08670589 -0.21360119
000250 c3 16 57 3e 48 2a 02 be a1 6c c4 bd 6b ca a3 ba
       0.21004777 -0.12711442 -0.09591032 -0.0012496238
000260 2b b0 37 3c 26 c1 88 bd 3f 47 b3 bd 3b 4f 28 be
       0.011211435 -0.06677465 -0.087538235 -0.16436474
000270 2a ea 82 be b2 34 9c be c7 f7 5a 3e 18 a6 36 3e
       -0.25569278 -0.30508953 0.21383582 0.17836797
000280 93 74 86 bd 51 5a d8 3d 89 86 7c 3e 04 50 2b be
       -0.065652035 0.105641015 0.24660696 -0.16729742
000290 49 60 05 3e e4 f7 fe 3a 59 36 f1 3d 99 59 4d bd
       0.13025011 0.0019452539 0.11777944 -0.050134275
0002a0 41 c5 31 be 19 24 98 3d 8a be 04 3e f9 bb 96 3e
       -0.17360403 0.0742876 0.1296331 0.29440287
0002b0 4f 0f fc 3d 7c 42 2f be 89 9a a2 bd c2 5e ae 3d
       0.123076074 -0.17115206 -0.079396315 0.08514167
0002c0 83 19 f9 bd fc 27 6e 3e 17 8f 0b bb 36 ad c5 be
       -0.12163069 0.2325744 -0.0021295005 -0.38608712
0002d0 ea eb 0c be 11 43 e7 3d 4e 98 ce bd 6f e8 9b 3e
       -0.13761869 0.11292089 -0.100876436 0.3045077
0002e0 65 e0 42 be 9a 9b cb bd 49 01 e0 3d 09 32 13 3d
       -0.19030912 -0.09941788 0.10937745 0.03593639
0002f0 f8 fd 5b 3d e7 de 69 be 19 6a db bd 33 7d 88 be
       0.053709 -0.22838937 -0.10713596 -0.2665802
000300 63 97 c4 3c 4d a4 4b bd 65 77 80 3c 6f 8f 1d be
       0.023997968 -0.049717236 0.015681932 -0.15386747
000310 27 21 95 3c dc 07 da 3d cc 3d 97 bd 98 91 7f 3e
       0.018204285 0.1064603 -0.07384834 0.24957883
000320 d8 db 23 be ec 6a 8e bd e0 36 3b 3e bc 93 8a be
       -0.16001832 -0.069539875 0.18282652 -0.27065837
000330 2c 5a 0e bd 32 a9 8a be 5a 32 83 3d 0f fe e9 bd
       -0.034753963 -0.2708221 0.06406088 -0.11425411
000340 55 f2 49 3e 8a 31 b2 bc 60 1e a6 3e 0e a5 7f bb
       0.19721349 -0.021752138 0.3244505 -0.0039008292
000350 c3 a2 64 be a3 f4 21 3e 56 d6 68 3d e0 ca 9c bd
       -0.22327714 0.15815978 0.05684503 -0.07655883
000360 66 e1 96 3c 16 e8 1f be d3 39 44 be 9b 3c 71 bd
       0.018418025 -0.15615878 -0.19162683 -0.05889569
000370 8d 6b 2e be 4e db 93 bd 9b b5 cc 3c 24 81 ce 3b
       -0.17033215 -0.072195634 0.02498894 0.006302016
000380 83 32 d0 3d 82 97 a2 3d c3 90 14 bd 3e 6d 34 3e
       0.10165884 0.07939054 -0.036270868 0.17619798
000390 84 2a 3f bd 17 c8 0d bd a2 92 ca bc 8c 0f 89 3d
       -0.046671405 -0.03461465 -0.024728123 0.066924185
0003a0 2a bb 97 bb 9a 60 40 be be 4a ba bd 24 5c ab 3d
       -0.004630466 -0.1878685 -0.09096287 0.08367184
0003b0 07 1d 2f bc ff 71 13 3e bc fd 53 3b 53 b9 b6 3d
       -0.010688073 0.14398955 0.0032347282 0.089220665
0003c0 c1 75 4a be ae 94 96 3d 4c ed 45 3d 65 0a 02 3c
       -0.19771482 0.07352577 0.048322007 0.007937049
0003d0 56 be 70 be 8f 28 e2 3d 41 20 f2 3d 56 18 2c 3e
       -0.23510107 0.11042892 0.11822558 0.16806158
0003e0 b5 18 99 be 47 8d 3a bd c0 5c 14 be f3 99 1f 3d
       -0.29901662 -0.04554489 -0.14488506 0.038965177
0003f0 a5 48 f1 3d 6a d3 25 3d c1 62 89 bd e2 68 40 be
       0.11781434 0.040484823 -0.06708289 -0.1879001

embedding.transform.bias f4 [100]
000000 24 49 ab be 97 5d 4d be 04 3e 94 bd 92 b6 c5 be
       -0.3345424 -0.20055233 -0.07238391 -0.38615853
000010 9b a1 bf be 4e b6 ef be c4 de 11 be 21 25 81 be
       -0.37427983 -0.46818775 -0.14245135 -0.2522364
000020 e5 87 da be fa 68 ab be 33 95 b0 be 0a c6 e3 be
       -0.42681804 -0.33478528 -0.3448883 -0.4448703
000030 6b 3b c4 bd c1 c4 8d be c8 93 11 bf f8 17 09 bf
       -0.095816456 -0.27689174 -0.5686612 -0.535522
000040 a9 eb c9 bd 5f 7b 5d be 8e 8e f9 bd 71 4a 57 be
       -0.09859402 -0.21629094 -0.12185393 -0.21024491
000050 75 49 b4 be 11 9f 04 be 98 bf 9d bd 41 4e b6 be
       -0.35212293 -0.12951304 -0.07702559 -0.35606578
000060 8a 85 cf be 85 ce 81 bd af 68 b8 be 78 b4 9d be
       -0.4053157 -0.063382186 -0.36017367 -0.3080175
000070 d2 c9 16 be 7c d6 d4 be 51 a0 aa bd aa 8d 3f be
       -0.14725426 -0.4156989 -0.08331359 -0.18706384
000080 14 92 b9 be 91 f7 81 be 08 ec 2f be 97 55 e8 be
       -0.3624426 -0.2538419 -0.17179883 -0.453778
000090 3c c1 b4 be a6 fe cf be c4 2a 48 bd 8e f8 10 bf
       -0.35303676 -0.4062397 -0.04886891 -0.56629264
0000a0 a1 aa 09 bd c6 82 c3 be e1 f4 d4 be 17 4d f3 bd
       -0.03360999 -0.3818571 -0.41593078 -0.11879938
0000b0 d1 ab 9f be 5a 10 68 be de 02 9d be 51 e9 a7 be
       -0.31185773 -0.22662488 -0.3066625 -0.32795194
0000c0 f6 74 c9 be ad 04 92 be f2 e9 89 be 06 35 c6 be
       -0.39347047 -0.28519192 -0.269363 -0.3871233
0000d0 f8 78 a8 bd 55 55 33 be fb b0 a0 be ed 7d b3 be
       -0.08226198 -0.1751302 -0.31385025 -0.3505701
0000e0 ac 93 aa be 97 7e 89 be 68 67 bb be 62 c1 d8 be
       -0.3331579 -0.26854393 -0.3660233 -0.4233504
0000f0 f9 05 26 be 2a 42 ff be 1f 8c 68 be 18 fd d9 be
       -0.16213216 -0.49855167 -0.22709702 -0.42575908
000100 b6 a9 f1 bd 18 f0 23 be 72 0b 9c be c1 4c 37 bd
       -0.11799948 -0.16009557 -0.30477482 -0.044750933
000110 b8 d7 ea be 7f bc f7 be cb 20 e6 bd d7 f2 18 bd
       -0.45867705 -0.48386 -0.112367235 -0.037340965
000120 ff f0 2c be 85 d7 74 be 3b c5 b1 be 3b 19 c6 be
       -0.16888808 -0.23910339 -0.34720787 -0.38691124
000130 5f 93 a8 be 1e b2 e7 be af 69 94 be fb 05 16 be
       -0.32924935 -0.4525308 -0.2898688 -0.14650719
000140 10 9c 91 be a9 4d 9a be 79 00 09 bd c0 1d 9c be
       -0.2843938 -0.30137375 -0.033447716 -0.30491447
000150 c6 c6 a3 be 9b cf 73 be 4a 94 7f be be 54 a4 be
       -0.3198759 -0.23809664 -0.24958912 -0.32095903
000160 d7 ca d0 bd e3 b6 ed bd b7 5c fb be 7b e0 3d be
       -0.10194939 -0.116071485 -0.49094173 -0.18542664
000170 f0 41 8b bd 0a e9 00 bf 34 d8 d2 be 7a 47 44 be
       -0.06799686 -0.5035559 -0.41180575 -0.19167891
000180 b6 06 30 be f9 ef b7 be f8 a4 6e be 53 d7 c4 bd
       -0.1719006 -0.35925272 -0.23305118 -0.09611382

contact.hidden.conv.bias f4 [50]
000000 c3 08 2d bf f2 e6 54 bd a9 bc 80 bf 7e ce f0 be
       -0.67591494 -0.05197806 -1.0057575 -0.4703254
000010 f9 fb 48 40 ab 1a 81 bf c0 7a 00 40 ee b2 eb be
       3.1403792 -1.0086263 2.007492 -0.4603495
000020 b1 8f c1 be 4e 9b 2b be 48 d5 09 3f 0c 9a a6 bc
       -0.3780494 -0.16758463 0.53841066 -0.020337127
000030 a5 56 55 3f 43 2a 19 bf b4 6d 73 bf b6 e9 89 40
       0.83335334 -0.5983011 -0.9508927 4.309779
000040 06 fd 2c 3f 18 d2 8a 40 3e 76 ed 3d 1f 2d 28 40
       0.67573583 4.338146 0.115948185 2.627754
000050 74 8c 14 bf 62 86 01 bf 08 54 73 40 d6 36 a9 be
       -0.58026814 -0.50595677 3.8020039 -0.3304965
000060 16 63 c0 3d 30 25 fe 3e 3d c7 9a 3d 55 aa 2f bf
       0.09393899 0.49637747 0.07557533 -0.6861928
000070 4c 49 dd be 6f b8 6d be 95 62 d1 3f 56 ba fe 3e
       -0.43219984 -0.23214887 1.635821 0.49751538
000080 29 8d 51 40 04 05 4d 40 29 f9 12 bf af 22 07 bf
       3.2742407 3.2034311 -0.5741144 -0.527873
000090 35 5a a6 be 89 73 a6 bf 0a 65 0d bf 8d 4c 06 3f
       -0.32490698 -1.3004009 -0.552323 0.5246056
0000a0 ca b2 09 3f 84 30 08 be ac c7 d2 be 1b 15 28 40
       0.53788435 -0.13299757 -0.41167963 2.6262882
0000b0 48 80 f3 3e fc 6b 1c bf eb 90 06 bf 4c fe 0d 40
       0.47558808 -0.6110227 -0.5256488 2.218646
0000c0 7d f9 c5 be 10 85 0b bf
       -0.38666907 -0.5449991

contact.hidden.batchnorm.weight f4 [50]
000000 ad 86 93 3f 23 82 bb 3e 23 6b d3 3d 24 45 8f 3f
       1.1525475 0.36622724 0.10323169 1.1192975
000010 ef ac 3d 3e ee 09 49 3f 25 b1 49 3f 58 53 91 3f
       0.18523 0.78530777 0.78785926 1.135356
000020 dd e3 a5 3f ac 0c 91 3f 57 b7 94 3f 9c 27 19 3f
       1.2960163 1.1331992 1.1618451 0.59826064
000030 0a 97 3e 3b 37 e9 7a 3d ed e8 1a 3f e0 0f 18 3f
       0.0029081726 0.061257567 0.60511667 0.59399223
000040 c7 31 93 3f 5e 1f 10 3f 33 88 da 3d 2b 25 29 3e
       1.1499566 0.5629786 0.10670509 0.16518085
000050 37 f1 a8 3f 5f e4 74 3f bf a9 d3 3e ec 16 30 3f
       1.3198613 0.95660967 0.41340443 0.68784976
000060 a2 6a 87 bc 07 82 9d 3f b6 73 dd 3e dd ea 56 3f
       -0.016530339 1.2305306 0.43252343 0.8395212
000070 91 8d 62 3f c2 3a 95 bc 54 27 6f 3f ec 4f 94 3f
       0.88497263 -0.018216494 0.93419385 1.158689
000080 e8 8c 4c 3f f7 de 12 3f b2 53 1b 3f a2 9b 80 3e
       0.79902506 0.5737147 0.60674584 0.25118738
000090 b1 fb b8 3d 35 0f 22 c0 bc 9a f3 bb e8 78 8d 3f
       0.09032381 -2.5321782 -0.0074342173 1.1052523
0000a0 31 58 5d 3f 33 a8 66 bd 6b 2b 2c 3e 74 c2 11 3e
       0.86462694 -0.05631275 0.16813438 0.14234334
0000b0 ce ca 23 3f d8 f6 5a 3f 08 db 84 3f b2 cf 2c 3e
       0.6398133 0.85532904 1.0379343 0.16876104
0000c0 69 57 e0 3e 71 b3 dc 3e
       0.4381669 0.43105653

contact.hidden.batchnorm.bias f4 [50]
000000 07 c3 fd bd 2d 86 8c bd 6c 65 00 3e 41 7c 65 3e
       -0.12390714 -0.068615295 0.1253869 0.2241068
000010 3c 12 98 bd 9b 7f 9d 3e bf e2 d0 be c4 9f 64 3e
       -0.07425353 0.30761418 -0.40797994 0.22326571
000020 54 f5 23 bc ff b4 26 3e 52 2d b8 be 01 43 34 be
       -0.010007221 0.16279982 -0.35972077 -0.17603685
000030 d5 3d a9 3c 2e 80 07 3c b4 26 12 3d 74 48 17 bf
       0.020659367 0.0082703065 0.03568144 -0.5909493
000040 7c 70 4d bf 74 b4 9e 3d 9d 14 96 bd 51 6e d2 bd
       -0.8024976 0.077492625 -0.073281504 -0.102749474
000050 89 0e 82 bd 3b ae bc 3d a9 ba 17 be 8a 00 75 be
       -0.063504286 0.09212919 -0.14817299 -0.23925987
000060 d7 41 1a bc 29 10 c5 be 07 5a 9e be 13 de 91 3e
       -0.0094151115 -0.38488892 -0.3092806 0.28489742
000070 70 e4 e5 be 60 8b 62 bd cc bd e3 be 32 bf 99 bd
       -0.44900846 -0.0553087 -0.4448074 -0.07507171
000080 6b cb 74 be c2 b6 6f be 93 56 a8 3e ae 0e c8 3c
       -0.23905723 -0.2340956 0.3287855 0.024421062
000090 63 60 6e bb 3e 85 94 3c 46 04 cf bc 56 46 9b be
       -0.003637337 0.018129941 -0.025270592 -0.303271
0000a0 a7 65 22 be 01 80 ad bc 6e c6 1b be fa fe 33 bc
       -0.1585909 -0.021179201 -0.15212414 -0.010986084
0000b0 4d 46 64 3d 8e 97 66 bc 08 e4 c2 3e f3 a4 c5 3b
       0.055731107 -0.014074219 0.380646 0.0060316264
0000c0 db b5 01 3e 1a 0a 26 bd
       0.12667029 -0.040536977

contact.hidden.batchnorm.running_mean f4 [50]
000000 d8 51 64 3b 73 0b 18 3f bd 5d b9 3d f2 5b 24 3b
       0.0034838822 0.5939247 0.09051082 0.0025079218
000010 5d c6 44 40 e0 e1 f2 3d 5e ac ff 3f c4 73 4b 3b
       3.0746071 0.118594885 1.9974477 0.0031044343
000020 05 7d 53 3b 94 d1 82 3c a9 1c a8 3f e6 9f b0 3f
       0.0032270562 0.015969075 1.3133746 1.3798797
000030 5b 2e 1d 40 c1 df 69 3e b5 54 8c 3c 7d ee 8d 40
       2.4559543 0.22839262 0.017130235 4.4353623
000040 bd de e9 3f 30 18 8c 40 32 75 df 3d 20 97 8a 40
       1.8271099 4.3779526 0.10911025 4.330948
000050 78 0c 43 3b 7b 4b 86 3b e1 f7 88 40 7c d3 99 3e
       0.002976207 0.0040983534 4.2802587 0.30044162
000060 5f f2 49 3f 07 fc 9b 3f 96 e6 e8 3f d7 5b 5e 3b
       0.78885454 1.2186288 1.8195369 0.0033929253
000070 70 64 6b 3c bb 81 8c 3e a2 0d 4f 40 97 97 4e 3f
       0.014367208 0.27442726 3.235207 0.8070006
000080 73 37 59 40 b2 b0 99 40 a7 cd 9b 3b 84 03 07 3f
       3.3940094 4.8028193 0.0047547403 0.5273974
000090 e6 c2 55 3e ba fb 5b 22 bc fe fd 3d 8d 97 b2 3f
       0.20875129 2.9813297e-18 0.12402102 1.39525
0000a0 47 f4 46 3f c5 46 50 3e ac a8 3a 3d 99 bd 29 40
       0.7771649 0.20339496 0.045571014 2.6521971
0000b0 d3 7f 1e 3f b7 b3 96 3c d7 8a 0f 3b 38 12 2a 40
       0.61913794 0.018396242 0.0021902823 2.657362
0000c0 39 9a 0b 3f ed 2d 64 3f
       0.545322 0.8913258

contact.hidden.batchnorm.running_var f4 [50]
000000 71 d1 8d 3c aa 6a 95 3f 4d d8 20 3f 11 8c 8d 3c
       0.017311784 1.1673176 0.6283005 0.017278703
000010 bb b8 a9 3f 12 b1 73 3e 43 d8 69 3e 87 2d bc 3c
       1.32595 0.23798016 0.22836404 0.022970928
000020 23 eb cb 3c 3d 61 3b 3d 21 6f b8 3f da 1e 0d 40
       0.024892395 0.04574703 1.4408914 2.205008
000030 68 6d 3f 40 54 bf f3 3e 8c 9c 78 3d 46 d9 95 3e
       2.9910526 0.4760691 0.06069617 0.2926733
000040 a7 d2 01 40 f9 54 4e 3f 70 01 81 3e 25 6d 59 40
       2.0284822 0.8059841 0.2519641 3.3972867
000050 2a 3a b2 3c e7 6c b5 3c 78 14 98 3f 42 6c 5d 3f
       0.02175625 0.022146655 1.1881247 0.86493313
000060 37 62 95 3f 3c de d1 3f a5 76 2f 40 42 49 32 3c
       1.1670598 1.6395946 2.7416165 0.010881724
000070 61 4b 27 3d d8 9a 15 3f b7 bf 62 40 7e 19 75 3f
       0.04084337 0.584394 3.5429513 0.95742023
000080 2d eb e7 3e 6c 6d 7b 40 28 51 89 3c 81 1d 80 3f
       0.45296612 3.9285536 0.016762331 1.0009004
000090 b2 d3 ab 3e a0 81 3e 20 a3 9f 98 3e 52 86 d9 3f
       0.33559948 1.6136515e-19 0.29809293 1.6994116
0000a0 9f bf 54 3f 8f 15 3c 3f 52 61 a8 3d 12 e8 a5 3f
       0.8310489 0.73470396 0.082216874 1.2961447
0000b0 c5 22 22 3f 64 aa 23 3d 6a 91 15 3c e4 36 79 3f
       0.63334304 0.03995742 0.009128908 0.9734938
0000c0 1e 29 7f 3f 24 b9 c8 3f
       0.99672115 1.56815

contact.conv.weight f4 [1, 50, 7, 7]
000000 7b 9a 4b 3b f2 a3 f4 ba bc ce a2 3b 35 e6 49 3d
       0.003106742 -0.0018664582 0.0049684923 0.04929181
000010 14 e7 5e bc 10 c7 8d 3c d3 26 48 bb f2 a3 f4 ba
       -0.013604898 0.017306834 -0.003054072 -0.0018664582
000020 f5 5f ce bc a2 63 82 bc c6 fa 83 3d 3a 30 e1 bc
       -0.02519224 -0.01591665 0.064443156 -0.027488817
000030 0a 67 06 bb a4 2b 85 bc bc ce a2 3b a2 63 82 bc
       -0.0020508193 -0.016256161 0.0049684923 -0.01591665
000040 26 6f 51 bc 0e ae 49 3d 38 8e 23 bc 48 a8 91 3c
       -0.0127828475 0.049238257 -0.009982638 0.017780438
000050 5e 25 91 bb 35 e6 49 3d c6 fa 83 3d 0e ae 49 3d
       -0.0044295033 0.04929181 0.064443156 0.049238257
000060 51 df 91 3f 8a 9b 77 3d 44 f0 6d 3d 15 7c 21 3d
       1.1396276 0.060451068 0.058090463 0.039424974
000070 14 e7 5e bc 3a 30 e1 bc 38 8e 23 bc 8a 9b 77 3d
       -0.013604898 -0.027488817 -0.009982638 0.060451068
000080 19 c9 d8 b8 dc 69 3d 3c 9c d2 5f bc 10 c7 8d 3c
       -0.0001033714 0.011560883 -0.013661053 0.017306834
000090 0a 67 06 bb 48 a8 91 3c 44 f0 6d 3d dc 69 3d 3c
       -0.0020508193 0.017780438 0.058090463 0.011560883
0000a0 38 18 49 3d d4 71 a2 3c d3 26 48 bb a4 2b 85 bc
       0.049095362 0.019829668 -0.003054072 -0.016256161
0000b0 5e 25 91 bb 15 7c 21 3d 9c d2 5f bc d4 71 a2 3c
       -0.0044295033 0.039424974 -0.013661053 0.019829668
0000c0 6c 29 1c ba cf 7e df bc d0 a6 bd bc b0 fb 0f bd
       -0.00059571 -0.027282147 -0.023150831 -0.035152137
0000d0 27 dd 19 3e 04 fc ef bb 24 e4 2d bc 10 b9 31 bd
       0.15025769 -0.007323744 -0.010613475 -0.04338938
0000e0 d0 a6 bd bc 42 ed b9 bc 3d ae f9 bc ec a4 2a 3e
       -0.023150831 -0.022696141 -0.030478591 0.16664475
0000f0 d8 3a a8 3b 82 06 2f bc 4e a3 2d bd b0 fb 0f bd
       0.005133968 -0.010682704 -0.042392068 -0.035152137
000100 3d ae f9 bc c7 d0 52 bd d4 63 12 3e b4 ce 40 bc
       -0.030478591 -0.051468637 0.14295894 -0.011768032
000110 58 ca 26 bc c4 c7 45 bd 27 dd 19 3e ec a4 2a 3e
       -0.010180078 -0.048286214 0.15025769 0.16664475
000120 d4 63 12 3e 45 3a 76 3f 2e 50 1f 3e 0e 05 22 3e
       0.14295894 0.9618266 0.1555793 0.1582224
000130 5e 16 11 3e 04 fc ef bb d8 3a a8 3b b4 ce 40 bc
       0.14168689 -0.007323744 0.005133968 -0.011768032
000140 2e 50 1f 3e 0b 8a ef 3c 52 63 b1 3c ce ae b7 bc
       0.1555793 0.029240629 0.021653805 -0.02242222
000150 24 e4 2d bc 82 06 2f bc 58 ca 26 bc 0e 05 22 3e
       -0.010613475 -0.010682704 -0.010180078 0.1582224
000160 52 63 b1 3c a8 ad f5 3c 34 e5 cf bc 10 b9 31 bd
       0.021653805 0.029990032 -0.025377847 -0.04338938
000170 4e a3 2d bd c4 c7 45 bd 5e 16 11 3e ce ae b7 bc
       -0.042392068 -0.048286214 0.14168689 -0.02242222
000180 34 e5 cf bc a4 98 85 bd 6d 44 11 bd 02 ed c7 3c
       -0.025377847 -0.065232545 -0.035465647 0.024405006
000190 b0 b9 e8 3c e2 cb 84 bd 81 11 f8 3c 8c 3e bd bb
       0.028408855 -0.064842 0.030281784 -0.0057752784
0001a0 fc 32 ce bc 02 ed c7 3c 5f 02 d7 3d b1 0f a1 3d
       -0.025170796 0.024405006 0.10498499 0.07864321
0001b0 a6 39 e0 bb 9e 72 9a 3d f0 82 90 3d 08 2d 39 3d
       -0.0068428097 0.07541393 0.07056224 0.04520896
0001c0 b0 b9 e8 3c b1 0f a1 3d 21 c7 82 3d a2 2c 9a 3c
       0.028408855 0.07864321 0.06385637 0.01882011
0001d0 3c ef a4 3d 89 55 7f 3d 79 c4 3c 3d e2 cb 84 bd
       0.08053443 0.062337432 0.04608581 -0.064842
0001e0 a6 39 e0 bb a2 2c 9a 3c 3b 03 83 bf 32 e9 81 bc
       -0.0068428097 0.01882011 -1.0235361 -0.015858267
0001f0 3b 1f b6 bd ce 13 b9 bd 81 11 f8 3c 9e 72 9a 3d
       -0.088926755 -0.090369806 0.030281784 0.07541393
000200 3c ef a4 3d 32 e9 81 bc 7e cb c9 3d 1e 1e 51 3d
       0.08053443 -0.015858267 0.09853266 0.051054113
000210 60 06 66 3d 8c 3e bd bb f0 82 90 3d 89 55 7f 3d
       0.056158423 -0.0057752784 0.07056224 0.062337432
000220 3b 1f b6 bd 1e 1e 51 3d 82 ad 41 bc 81 5a 44 bb
       -0.088926755 0.051054113 -0.011821153 -0.002996117
000230 fc 32 ce bc 08 2d 39 3d 79 c4 3c 3d ce 13 b9 bd
       -0.025170796 0.04520896 0.04608581 -0.090369806
000240 60 06 66 3d 81 5a 44 bb a4 d2 69 bc 4d e5 c2 bc
       0.056158423 -0.002996117 -0.014271412 -0.02379098
000250 a0 23 4a bc a0 0a 4f bd a3 7f 16 3d 75 6c db bb
       -0.012337595 -0.050547242 0.036742818 -0.0066962787
000260 1f 08 61 3c dc 3e 2c bc a0 23 4a bc 4c cf 94 bc
       0.013734846 -0.010513034 -0.012337595 -0.018165253
000270 1e a0 2c bd c6 7a a1 3c 45 dd d1 bb 80 ab 31 3a
       -0.042144887 0.019711863 -0.006404551 0.00067775697
000280 5c 3a 3b bc a0 0a 4f bd 1e a0 2c bd fa 10 d0 bd
       -0.011427488 -0.050547242 -0.042144887 -0.10159488
000290 25 33 08 bd 89 2f 34 bd c2 58 d2 bc 0c 87 38 bd
       -0.0332519 -0.043990646 -0.025677089 -0.045050666
0002a0 a3 7f 16 3d c6 7a a1 3c 25 33 08 bd 03 53 90 3f
       0.036742818 0.019711863 -0.0332519 1.1275333
0002b0 48 ad 22 3c dc 82 0c 3d 58 86 1f 3c 75 6c db bb
       0.009929009 0.034304485 0.00973662 -0.0066962787
0002c0 45 dd d1 bb 89 2f 34 bd 48 ad 22 3c 31 b5 c4 bb
       -0.006404551 -0.043990646 0.009929009 -0.006003045
0002d0 c0 79 1a 3c 00 e6 f8 3a 1f 08 61 3c 80 ab 31 3a
       0.0094284415 0.0018989444 0.013734846 0.00067775697
0002e0 c2 58 d2 bc dc 82 0c 3d c0 79 1a 3c b2 82 97 3b
       -0.025677089 0.034304485 0.0094284415 0.0046237344
0002f0 50 0f 41 3c dc 3e 2c bc 5c 3a 3b bc 0c 87 38 bd
       0.011783436 -0.010513034 -0.011427488 -0.045050666
000300 58 86 1f 3c 00 e6 f8 3a 50 0f 41 3c 33 84 f6 bb
       0.00973662 0.0018989444 0.011783436 -0.0075230836
000310 f4 2e 4d bc 46 5d 9c 3c ce d4 a1 3c f9 ef 40 be
       -0.0125234015 0.019087445 0.019754793 -0.18841542
000320 a8 e1 55 3c e8 1a 64 3d 04 4e 7a 3c 46 5d 9c 3c
       0.013054289 0.055689722 0.015277389 0.019087445
000330 6c 3f 23 3d 9a 7d 04 3d c5 84 0f be 18 2b 30 3d
       0.039855406 0.032346345 -0.14015491 0.043009847
000340 4a bf 95 3d ed 22 07 3d ce d4 a1 3c 9a 7d 04 3d
       0.07311876 0.032992292 0.019754793 0.032346345
000350 7b cc 4e 3d c4 27 35 be 02 6d 5d 3d 23 8d 7b 3d
       0.050487977 -0.1769095 0.054059036 0.061413895
000360 f3 7a 1b 3d f9 ef 40 be c5 84 0f be c4 27 35 be
       0.03795905 -0.18841542 -0.14015491 -0.1769095
000370 78 d2 85 3f 4c 6f 53 be af 15 25 be fc 63 72 be
       1.0454855 -0.20647925 -0.16121553 -0.23670954
000380 a8 e1 55 3c 18 2b 30 3d 02 6d 5d 3d 4c 6f 53 be
       0.013054289 0.043009847 0.054059036 -0.20647925
000390 35 a3 4e 3d c0 8b 9f 3d c7 f9 2e 3d e8 1a 64 3d
       0.050448615 0.07790327 0.042718675 0.055689722
0003a0 4a bf 95 3d 23 8d 7b 3d af 15 25 be c0 8b 9f 3d
       0.07311876 0.061413895 -0.16121553 0.07790327
0003b0 99 ad d1 3d d4 14 53 3d 04 4e 7a 3c ed 22 07 3d
       0.10238189 0.051533535 0.015277389 0.032992292
0003c0 f3 7a 1b 3d fc 63 72 be c7 f9 2e 3d d4 14 53 3d
       0.03795905 -0.23670954 0.042718675 0.051533535
0003d0 f3 21 7c 3c 26 57 cd b8 9e 88 de bb af 3b 6e bc
       0.0153889535 -9.7913944e-05 -0.0067911884 -0.014540597
0003e0 2a 01 ed 3d 00 d3 44 bb 36 37 e4 bc 58 29 90 bb
       0.11572488 -0.0030032992 -0.027858358 -0.00439946
0003f0 9e 88 de bb 3a 04 4f bc f8 dc c8 bc 56 76 d0 3d
       -0.0067911884 -0.012635285 -0.024519429 0.10178821
